models/nn_weights.pth (torch, 185960 bytes, 4 tensors)

leaf_network.first_encoder.0.weight f4 [16, 1433]
0	0xbe0ab782	-0.13546565
1	0xbd95573a	-0.07292028
2	0xbdb3011d	-0.08740447
3	0x3d95b321	0.07309557
4	0xbdfbbca0	-0.12291837
5	0xbda2fde9	-0.07958586
6	0xbdc26d66	-0.09493522
7	0xbd81354d	-0.063089944
8	0xbe2f13de	-0.17097422
9	0xbdc227eb	-0.0948027
10	0xbdb32723	-0.08747699
11	0xbc96b230	-0.018395513
12	0x3d134c1c	0.035961255
13	0x3cc7985d	0.024364645
14	0xbdd64f8c	-0.10464391
15	0xbe4dcf37	-0.20098577
16	0xbdc89fb5	-0.09796087
17	0xbd83402e	-0.06408726
18	0xbd967a45	-0.0734754
19	0xbd61a53f	-0.05508923
20	0x3d11cb14	0.03559406
21	0xbde1ab94	-0.11019054
22	0xbdd15421	-0.102211244
23	0xbe1bfbe2	-0.15232804
24	0xbe0c6bc8	-0.1371299
25	0xbe0fa8a0	-0.14029169
26	0x3d67a919	0.05655775
27	0xbd181bb8	-0.03713581
28	0xbe1978b2	-0.14987448
29	0xbdcffa83	-0.10155203
30	0xbe302776	-0.17202553
31	0xbd356838	-0.044288844
32	0xbe0cb7af	-0.13741945
33	0xbdd6cb2b	-0.1048797
34	0xbdb2ec38	-0.087364614
35	0xbd859efa	-0.06524463
36	0xbe046c3d	-0.12931915
37	0xbddbfd9c	-0.107417315
38	0xbdbf364a	-0.09336527
39	0xbe1e85f6	-0.1548079
40	0xbdd13ff4	-0.10217276
41	0xbdd4ee27	-0.103969865
42	0xbdebdfef	-0.11517321
43	0xbdd01779	-0.10160727
44	0xbdd01595	-0.101603664
45	0xbd5dee0e	-0.054182105
46	0xbd7501e3	-0.059816252
47	0xbdbb32f3	-0.09140577
48	0xbdeac84a	-0.11463983
49	0xbccd762e	-0.025080767
50	0x3c8f83e1	0.01751894
51	0xbdb82605	-0.08991627
52	0xbdd511bd	-0.10403774
53	0xbcb4e8fa	-0.022083748
54	0xbde996f8	-0.11405748
55	0xbdd2d6a4	-0.10294846
56	0xbe02a053	-0.12756471
57	0xbded4310	-0.11585057
58	0xbd782570	-0.06058258
59	0xbd8a4e81	-0.06753255
60	0xbc52b33e	-0.0128601175
61	0xbddfc1f1	-0.10925663
62	0xbc04edc3	-0.008113327
63	0x3e183d34	0.14867097
64	0x3c54d6eb	0.012990694
65	0xbdb0fb2c	-0.08641657
66	0x3c32bdaa	0.010909477
67	0x3c85f1ac	0.01635059
68	0xbb7268ab	-0.0036988657
69	0x3c4a738d	0.012356651
70	0xbdb7cdde	-0.08974813
71	0xbdbcd7c0	-0.092208385
72	0x3a06f23c	0.000514779
73	0x3c858ddb	0.016302994
74	0x3cc4b7f2	0.024013493
75	0x3c4de690	0.012567177
76	0xbda27028	-0.07931548
77	0xbb68cce1	-0.0035522508
78	0xbde1f3be	-0.11032818
79	0x3ddb01c9	0.106937
80	0xbc64d2a7	-0.013966239
81	0xbcb4039e	-0.021974381
82	0xbda7045d	-0.08155129
83	0xbafd0038	-0.0019302433
84	0x3a4275f9	0.0007418092
85	0xbc7fcd1c	-0.015612867
86	0xbc874871	-0.016514035
87	0x3c0f4f23	0.008746895
88	0xbd866925	-0.065630235
89	0x3cc12b3a	0.023580182
90	0xbdb264ed	-0.08710656
91	0x3dd2ff32	0.10302581
92	0xbe012ebd	-0.12615485
93	0xbca0f47e	-0.019647833
94	0xbd734532	-0.05939216
95	0x3c6aacbc	0.01432341
96	0x3c8fdb4c	0.017560624
97	0xbdc8a110	-0.09796345
98	0xbb825481	-0.003977359
99	0xbcc31395	-0.023813048
100	0xbe31bd5d	-0.17357393
101	0x3bfeb05b	0.007772488
102	0xbc98569e	-0.01859599
103	0x3c1b3f4d	0.009475541
104	0xbc2aa8d2	-0.010416226
105	0x3c23f63d	0.010007438
106	0x3c790946	0.015199965
107	0x3c931577	0.017954571
108	0x3c87f3e1	0.016595783
109	0xbcadfceb	-0.021238765
110	0x3d82f177	0.06393712
111	0x3cb1d128	0.021706179
112	0xbcca1e57	-0.02467267
113	0x3cae092c	0.021244608
114	0x3ca8657a	0.0205562
115	0xbdec74ae	-0.115456924
116	0xbcb0f265	-0.021599958
117	0x3cc701a0	0.024292767
118	0x3c3db057	0.011577687
119	0x3c487e50	0.0122371465
120	0xba8c7d19	-0.0010718434
121	0x3c71e461	0.014763922
122	0xbc7705bd	-0.015077052
123	0xbca91dab	-0.02064403
124	0x3c494561	0.012284608
125	0xbcc3971b	-0.023875764
126	0xbcbbfd50	-0.022947937
127	0xbc2e315a	-0.0106318835
128	0x3c5853f2	0.013203608
129	0x3ccd12d2	0.025033388
130	0x3c4d30e8	0.012523867
131	0xbc09c3b9	-0.00840848
132	0x3cb21fd1	0.021743687
133	0x3cc8629a	0.02446108
134	0xbc34f97a	-0.011045808
135	0x3c449d45	0.012000387
136	0xbe007d47	-0.1254779
137	0xbca63088	-0.020286813
138	0xbde22d6d	-0.110438205
139	0xbb575152	-0.0032854867
140	0xbded8245	-0.115971126
141	0xbb15ea5c	-0.0022875285
142	0xbbee5e2d	-0.00727441
143	0xbcb62a03	-0.02223683
144	0x3a07b560	0.0005176868
145	0x3c20ab90	0.009806529
146	0x3c9f82b8	0.019471511
147	0x3a434228	0.0007448518
148	0xbc0ece98	-0.008716248
149	0xbc11406c	-0.008865457
150	0xbc87e759	-0.016589807
151	0xbc6c0768	-0.014406063
152	0xbcbcaa3b	-0.023030391
153	0xbc212796	-0.009836098
154	0x3c8944a3	0.016756361
155	0xbc906c27	-0.017629696
156	0xbbc3b1bb	-0.005972115
157	0x3c2d0a76	0.010561576
158	0xbdd896c0	-0.10575628
159	0xbd30e911	-0.04319102
160	0xbddbcc8f	-0.10732376
161	0x3c1a6a0f	0.0094247
162	0x3ba0e747	0.004910383
163	0x3b9ccc0c	0.0047850665
164	0xbc849455	-0.016184011
165	0x3c7aa429	0.015297928
166	0x3d1df242	0.038561113
167	0xbcb38b57	-0.021917028
168	0xbdeedff2	-0.11663808
169	0xbdb1ef72	-0.08688249
170	0x3d8b79e0	0.06810355
171	0xbca38f7c	-0.01996588
172	0xbc3e2d72	-0.011607515
173	0x3b7af625	0.0038293686
174	0xbbb567c1	-0.00553605
175	0xbd8b9575	-0.06815616
176	0xbdf09daf	-0.11748826
177	0x3b85a731	0.0040787687
178	0x3dce5e58	0.100765884
179	0xbdc1b589	-0.09458453
180	0x3bc1e5a6	0.005917269
181	0x3c87b7a1	0.016567053
182	0x3c8d8dd4	0.017279543
183	0xbb5e4fa1	-0.0033921974
184	0x3caab685	0.020838985
185	0xbde481b2	-0.1115755
186	0xbdc2bea8	-0.09509021
187	0xbb97bfc8	-0.0046310164
188	0x3ca9a42f	0.020708172
189	0x3bcb335d	0.0062011913
190	0xbe1fb4e1	-0.15596344
191	0xbbe1662b	-0.0068786344
192	0x3c9882b2	0.018617008
193	0xbb84ae73	-0.0040491163
194	0xbdb74199	-0.08948059
195	0x3c15f928	0.009153642
196	0x3cd661f6	0.026169758
197	0x3a820e08	0.0009922395
198	0x3ccd3c1a	0.025053073
199	0xbb2b183a	-0.002610697
200	0xbcb9d027	-0.022682263
201	0xbdcd13ae	-0.10013519
202	0x3ca65c43	0.020307666
203	0xbbd625b9	-0.0065352586
204	0xbe0a6d5f	-0.13518284
205	0x3c89df51	0.016830118
206	0xbe00939b	-0.12556307
207	0xbde2c971	-0.11073578
208	0xbca1f0bd	-0.019768113
209	0x39eaa9a2	0.00044758344
210	0x3de6da40	0.11272097
211	0x3c8ea210	0.017411262
212	0x3ad2414f	0.0016041192
213	0xbc9275f2	-0.017878506
214	0xbcaffe20	-0.02148348
215	0xbcbc6f9d	-0.02300244
216	0xbca60577	-0.020266278
217	0xbdf4a8c8	-0.11946255
218	0xbcc5644d	-0.024095679
219	0xbd216eaa	-0.039412178
220	0xbe1e03bc	-0.15431112
221	0x3cc9df41	0.024642589
222	0x3c0d530a	0.008625755
223	0x3d82a0dd	0.063783385
224	0x3dcba635	0.09943811
225	0xbab8f9ad	-0.0014112495
226	0x3cd667c3	0.026172524
227	0xbdac6790	-0.084181905
228	0xbd7d3ee2	-0.061827548
229	0x39429476	0.00018556588
230	0xbe0c7216	-0.13715395
231	0xbd87ee7c	-0.06637284
232	0x3b583b7d	0.0032994442
233	0x3c91d5fe	0.017802235
234	0xbc1f0b2b	-0.0097072525
235	0xbd830a42	-0.06398441
236	0x3cd460b9	0.025925027
237	0x3c8e4346	0.017366063
238	0xbc19a703	-0.009378198
239	0xbc3dc1dd	-0.011581865
240	0xbd9f745d	-0.077858664
241	0x3dd86926	0.105669305
242	0xbdeffa35	-0.11717645
243	0x3b9659cf	0.0045883427
244	0x3bdf1109	0.0068074507
245	0xbd446fcd	-0.047958184
246	0xbd8d21f5	-0.068912424
247	0xbdab6917	-0.08369654
248	0xbd8c32b8	-0.06845611
249	0xbd61aa97	-0.055094328
250	0xbde6aadf	-0.1126306
251	0xbdfb97fd	-0.12284849
252	0xbcc1fd41	-0.023680331
253	0xbc7cf269	-0.015438654
254	0xbb63e8c8	-0.00347762
255	0x3c0ce467	0.008599377

leaf_network.first_encoder.0.bias f4 [16]
0	0xbe1ca140	-0.15295887
1	0x3d8d88e6	0.06910877
2	0xbe0198e0	-0.12655973
3	0x3dc3f750	0.095686555
4	0xbe1d5a01	-0.15366365
5	0x3e28a646	0.16469678
6	0xbd16b9dc	-0.036798343
7	0xbe19ede1	-0.1503215
8	0xbdd1fe5a	-0.10253592
9	0x3d5aa011	0.053375307
10	0xbdf566f0	-0.119825244
11	0xbd78b1bd	-0.06071638
12	0x3db6b0e0	0.08920455
13	0x3e157a96	0.14597544
14	0x3e05a411	0.13050868
15	0x3e092c42	0.1339579

tree_network.second_encoder.0.weight f4 [16, 1433]
0	0x3b0096be	0.00196211
1	0x3d3b5542	0.045735605
2	0xbd0df881	-0.03466082
3	0xbda9cb3a	-0.082907155
4	0x3d2d2862	0.04227484
5	0x3d8b50f2	0.068025485
6	0xbd07c5a8	-0.033147484
7	0x3e42baab	0.1901652
8	0x3c225218	0.009907268
9	0x3d338d17	0.043835726
10	0xbcde7912	-0.02715734
11	0x3e49004b	0.19629018
12	0x3c5308d6	0.012880525
13	0x3af8180f	0.0018928068
14	0x3e5281b0	0.20557284
15	0xbe0e2f7c	-0.13885301
16	0x3e290384	0.16505247
17	0x3e37b8a1	0.17941524
18	0x3e4d23d6	0.20033202
19	0x3e50cb65	0.20390089
20	0xbe81c3c2	-0.25344664
21	0x3defe62a	0.11713822
22	0xbc03320a	-0.008007536
23	0x3e609a64	0.21933895
24	0xbdfc6be5	-0.12325267
25	0x3de56ea4	0.11202744
26	0xbe8e8e15	-0.27842775
27	0x3e413185	0.18866546
28	0x3db4a508	0.0882054
29	0x3d33661f	0.043798562
30	0x3e2189d9	0.15775241
31	0xbe7ae03d	-0.24499603
32	0x3e27767c	0.16353792
33	0x3dc39f06	0.09551816
34	0xbdbe0ae0	-0.09279418
35	0x3d8b979b	0.06816026
36	0x3e530308	0.20606625
37	0x3e513f21	0.20434238
38	0x3e4437a6	0.19161853
39	0x3dbd4405	0.09241489
40	0xbd0f0439	-0.034916136
41	0x3de3d059	0.111237235
42	0x3d1c472e	0.03815382
43	0x3d002e3a	0.031294085
44	0xbda78c9f	-0.08181118
45	0xbd74f0cd	-0.059799958
46	0xbd043db3	-0.032285403
47	0x3d6841cd	0.056703378
48	0x3c7d443b	0.015458162
49	0x3e3c706d	0.18402262
50	0xbd822c33	-0.063560866
51	0xbd0aee9e	-0.03391897
52	0xbda02ce1	-0.0782106
53	0xbdacc4b7	-0.08435958
54	0xba918d8d	-0.0011104807
55	0xbcd58e22	-0.02606875
56	0xbdb6138d	-0.08890448
57	0x3d28a1c3	0.041169893
58	0xbdafdda7	-0.08587199
59	0x3ba5f782	0.0050649056
60	0xbd9ca029	-0.076477356
61	0xbd8b97af	-0.06816041
62	0xbc87d44c	-0.016580723
63	0xbe35bf26	-0.17748699
64	0x3cb894be	0.022531863
65	0x3e0f4721	0.13991977
66	0x3c9f0d65	0.019415567
67	0xbcce4c53	-0.025182879
68	0x3c86209f	0.016372977
69	0x3c33dcf8	0.010977976
70	0x3ddb82b7	0.10718291
71	0x3e381af2	0.17979029
72	0xbbd664a5	-0.0065427595
73	0xbc65fd63	-0.014037463
74	0x3c561680	0.013066888
75	0xbc8584ed	-0.016298736
76	0x3e211349	0.15730013
77	0xbc4be309	-0.012444266
78	0xbc8c4def	-0.017127005
79	0xbddcfca7	-0.10790377
80	0xbc4265e4	-0.011865113
81	0x3c32fed7	0.010925016
82	0x3d0b0c57	0.033947315
83	0x3cabaa15	0.020955125
84	0x3cc4109a	0.023933697
85	0xbc004422	-0.007828744
86	0x3c844b5e	0.01614922
87	0x3cbd15d3	0.023081696
88	0x3df28261	0.11841274
89	0x3c175091	0.009235517
90	0x3e01a87c	0.12661928
91	0xbd43f907	-0.047844913
92	0x3dde06e7	0.1084116
93	0xbb5f9da8	-0.003412107
94	0x3e247acd	0.1606247
95	0x3c3ceb82	0.011530759
96	0xbc32752c	-0.010892194
97	0x3d697ae4	0.057001963
98	0xbcaac587	-0.020846142
99	0x3cb3a961	0.021931352
100	0xbdcb8da0	-0.09939122
101	0x3c6d826c	0.014496427
102	0x3c365fc4	0.011131231
103	0x3b0a4f99	0.0021104573
104	0x3c45d3ae	0.012074394
105	0xbbe1dbf9	-0.006892678
106	0x3a37a721	0.00070058
107	0x3cb4e7a3	0.02208311
108	0x3c8ccab5	0.017186502
109	0x3a65d8fb	0.00087679893
110	0xbe059abf	-0.13047312
111	0xbc83ea50	-0.01610294
112	0x3beaf4c9	0.007170294
113	0x3ba7eb80	0.0051245093
114	0xbcceed6f	-0.025259702
115	0x3dcfe9cb	0.10152014
116	0x3b26b5fa	0.0025438056
117	0xbcab599a	-0.020916749
118	0x3c7fe559	0.015618646
119	0x3b986d91	0.004651733
120	0x3c6d5e1c	0.014487769
121	0xbcc5a7e8	-0.024127916
122	0xbcc8289c	-0.024433427
123	0xbad5ad3b	-0.0016302237
124	0xbbe5531d	-0.0069984333
125	0xbccdd34e	-0.025125172
126	0xbaf5cd8b	-0.0018753273
127	0xbba48140	-0.0050202906
128	0xbc8268f4	-0.015919186
129	0x3c0ca793	0.008584875
130	0xbc1f58ab	-0.00972573
131	0xba5c591d	-0.0008405613
132	0xbbc77006	-0.0060863523
133	0x3b7cfa5c	0.0038601374
134	0xbcba8eb4	-0.022773124
135	0x3beae09a	0.007167888
136	0x3dd7763a	0.10520597
137	0x3c8a423c	0.016877286
138	0x3e04539e	0.12922522
139	0x3bb3bb34	0.005484963
140	0x3c56abee	0.013102515
141	0x3caa2ea5	0.020774195
142	0xbc8f130b	-0.017465135
143	0xbcb1e7d1	-0.021716984
144	0x3cd1f385	0.025628814
145	0xbbf085eb	-0.007340183
146	0x3c8b7835	0.017025093
147	0xbcaee822	-0.021350924
148	0x3bc7d4fd	0.006098388
149	0xbca13bca	-0.01968183
150	0x3ade0f04	0.0016941731
151	0x3bedefba	0.0072612436
152	0x3b409e7a	0.0029391334
153	0xb8cbe280	-9.721983e-05
154	0x3c4b0c8e	0.01239313
155	0xbca4a460	-0.020097911
156	0x3c133869	0.008985617
157	0x3c919d51	0.01777521
158	0x3dce2c93	0.100670956
159	0xbe2f44cd	-0.17116089
160	0x3e220ea8	0.15825903
161	0x3c849051	0.016182097
162	0x3c5da9cc	0.013529252
163	0x3c6f05ae	0.0145887565
164	0xbb839120	-0.004015103
165	0x3c301296	0.010746619
166	0xbdf202eb	-0.11816963
167	0xbac9d0d0	-0.0015397314
168	0x3e1f04df	0.15529202
169	0x3df68ef2	0.120389834
170	0xbd3e6376	-0.046481572
171	0xba48e731	-0.0007663845
172	0x3c83017f	0.015991924
173	0x3ba16606	0.004925492
174	0xbca8a89f	-0.020588217
175	0x3d018131	0.031617347
176	0x3e2c4597	0.16823421
177	0x3b82e5dc	0.0039946865
178	0xbe1deac9	-0.15421595
179	0x3e371617	0.1787952
180	0xbc09b680	-0.008405328
181	0x3c0ff321	0.008785994
182	0xbc85d22d	-0.016335571
183	0xbc8fccc6	-0.017553698
184	0xbc0e49dc	-0.008684602
185	0x3d9d0a9b	0.076680385
186	0x3d1f1534	0.03883858
187	0x3c8ecec1	0.017432572
188	0xbbf4a1d6	-0.0074655814
189	0xbc92aa85	-0.017903576
190	0x3d28121a	0.041032888
191	0xbbb71aa9	-0.005587895
192	0xbdff9c39	-0.12480969
193	0x3c4f2fb7	0.012645653
194	0x3e125b41	0.14292623
195	0x3c96cd69	0.018408494
196	0x3cd0473f	0.025424598
197	0xbc696581	-0.014245392
198	0xbc6613d9	-0.014042818
199	0xbc8c767c	-0.017146342
200	0xbc9eb5a6	-0.019373726
201	0x3e2a27e4	0.1661678
202	0x3c981abb	0.018567434
203	0x3c1f0dcc	0.009707879
204	0x3e2efc76	0.17088494
205	0xbc6f120e	-0.014591707
206	0x3e268c12	0.1626437
207	0x3e31ad00	0.1735115
208	0x3b83e649	0.004025255
209	0x3c8693d0	0.016427904
210	0xbe15eb2b	-0.1464049
211	0xbca7c6e9	-0.02048059
212	0x3b8df0ec	0.0043316986
213	0x3ccdba47	0.025113238
214	0xbc3973cb	-0.011319111
215	0xbcb3b135	-0.021935085
216	0x3c9bc28e	0.01901367
217	0x3e1f5c5a	0.15562573
218	0xbc3408b2	-0.010988401
219	0xbdcd3f2a	-0.10021813
220	0xbe419bcd	-0.1890709
221	0xba45f413	-0.00075513235
222	0xbcd4f8cf	-0.025997547
223	0x3afbd50e	0.0019213276
224	0xbe4672d7	-0.19379745
225	0xba899bdb	-0.0010498719
226	0xbbfd945d	-0.0077386335
227	0xbda8e5c3	-0.082469486
228	0x3e0a9a6d	0.13535471
229	0xbc45aacf	-0.01206465
230	0x3df02bff	0.117271416
231	0xbbe5c9d5	-0.0070125856
232	0x3d58fdb0	0.05297631
233	0xbe3e78d1	-0.18600775
234	0x3ccc0b2c	0.02490767
235	0xbde16209	-0.11005027
236	0x3ca7dec5	0.020491967
237	0x3c9bd223	0.0190211
238	0xbb861337	-0.004091646
239	0x3caf403d	0.021392936
240	0x3e27cbf7	0.163864
241	0xbdadabf2	-0.084800616
242	0x3e0cf965	0.13767011
243	0xbc6fd5a7	-0.014638341
244	0x3c4f3c04	0.012648586
245	0x3d10b00d	0.035324145
246	0x3e1fb4fd	0.15596385
247	0xbe63582e	-0.22201607
248	0x3e077a88	0.13230336
249	0x3d39274d	0.045203496
250	0x3e094db3	0.13408546
251	0x3e09895d	0.13431306
252	0x3b0b2cf4	0.002123651
253	0xbc6d7bfb	-0.014494891
254	0x3c933919	0.017971562
255	0xbe0b2294	-0.1358741

tree_network.second_encoder.0.bias f4 [16]
0	0x3d08eac3	0.03342701
1	0xbc27b6b6	-0.010236433
2	0x3d769a39	0.060205672
3	0xbd85e9d0	-0.06538737
4	0xbd661950	-0.056176484
5	0xbd12aab7	-0.035807338
6	0x3d068ec5	0.032851
7	0x3cb8a0bd	0.022537583
8	0xbd2e31e4	-0.04252805
9	0x3d2897aa	0.041160263
10	0xbd041412	-0.032245703
11	0xbc9a3435	-0.018823722
12	0x3d34c746	0.044135354
13	0x3bfd4c8c	0.0077300724
14	0x3c550b9a	0.013003254
15	0x3c966505	0.018358717
